…
2025-08-15 00:15:22,630 - src.data.dataset - INFO - Loaded 658 samples for test split
2025-08-15 00:15:22 - src.data.dataset - INFO - Loaded 658 samples for test split
2025-08-15 00:15:22,630 - root - INFO - 
Creating model...
2025-08-15 00:15:22 - root - INFO - 
Creating model...
/usr/local/lib/python3.11/dist-packages/torch/nn/modules/transformer.py:385: UserWarning: enable_nested_tensor is True, but self.use_nested_tensor is False because encoder_layer.norm_first was True
  warnings.warn(
2025-08-15 00:15:22,956 - root - INFO - Model architecture:
TransformerFusionModel(
  (text_encoder): TransformerTextEncoder(
    (input_projection): Linear(in_features=768, out_features=256, bias=True)
    (transformer_encoder): TransformerEncoder(
      (layers): ModuleList(
        (0-3): 4 x TransformerEncoderLayer(
          (self_attn): MultiheadAttention(
            (out_proj): NonDynamicallyQuantizableLinear(in_features=256, out_features=256, bias=True)
          )
          (linear1): Linear(in_features=256, out_features=1024, bias=True)
          (dropout): Dropout(p=0.3, inplace=False)
          (linear2): Linear(in_features=1024, out_features=256, bias=True)
          (norm1): LayerNorm((256,), eps=1e-05, elementwise_affine=True)
          (norm2): LayerNorm((256,), eps=1e-05, elementwise_affine=True)
          (dropout1): Dropout(p=0.3, inplace=False)
          (dropout2): Dropout(p=0.3, inplace=False)
        )
      )
    )
    (norm): LayerNorm((256,), eps=1e-05, elementwise_affine=True)
  )
  (output_proj): Linear(in_features=256, out_features=1, bias=True)
)
2025-08-15 00:15:22 - root - INFO - Model architecture:
TransformerFusionModel(
  (text_encoder): TransformerTextEncoder(
    (input_projection): Linear(in_features=768, out_features=256, bias=True)
    (transformer_encoder): TransformerEncoder(
      (layers): ModuleList(
        (0-3): 4 x TransformerEncoderLayer(
          (self_attn): MultiheadAttention(
            (out_proj): NonDynamicallyQuantizableLinear(in_features=256, out_features=256, bias=True)
          )
          (linear1): Linear(in_features=256, out_features=1024, bias=True)
          (dropout): Dropout(p=0.3, inplace=False)
          (linear2): Linear(in_features=1024, out_features=256, bias=True)
          (norm1): LayerNorm((256,), eps=1e-05, elementwise_affine=True)
          (norm2): LayerNorm((256,), eps=1e-05, elementwise_affine=True)
          (dropout1): Dropout(p=0.3, inplace=False)
          (dropout2): Dropout(p=0.3, inplace=False)
        )
      )
    )
    (norm): LayerNorm((256,), eps=1e-05, elementwise_affine=True)
  )
  (output_proj): Linear(in_features=256, out_features=1, bias=True)
)
2025-08-15 00:15:22,958 - root - INFO - Logging to /content/nuu_multi-Multimodal-Sentiment-Analysis-with-MOSEI-Dataset/logs/multimodal_fusion.log/log.txt
2025-08-15 00:15:22 - root - INFO - Logging to /content/nuu_multi-Multimodal-Sentiment-Analysis-with-MOSEI-Dataset/logs/multimodal_fusion.log/log.txt
2025-08-15 00:15:22 - root - INFO - Logging to /content/nuu_multi-Multimodal-Sentiment-Analysis-with-MOSEI-Dataset/logs/multimodal_fusion.log/log.txt
…
