…
2025-04-23 17:36:22 - root - INFO - Checkpoint: 
2025-04-23 17:36:22 - root - INFO - Random seed set to 42.
2025-04-23 17:36:22 - root - INFO - 
Loading data...
2025-04-23 17:36:22 - src.data.dataset - INFO - Loaded 2370 samples for train split
2025-04-23 17:36:22 - src.data.dataset - INFO - Loaded 264 samples for val split
2025-04-23 17:36:22 - src.data.dataset - INFO - Loaded 658 samples for test split
2025-04-23 17:36:22 - root - INFO - 
Creating model...
2025-04-23 17:36:22 - root - INFO - Model architecture:
TransformerFusionModel(
  (text_encoder): TransformerTextEncoder(
    (input_projection): Linear(in_features=768, out_features=256, bias=True)
    (transformer_encoder): TransformerEncoder(
      (layers): ModuleList(
        (0-3): 4 x TransformerEncoderLayer(
          (self_attn): MultiheadAttention(
            (out_proj): NonDynamicallyQuantizableLinear(in_features=256, out_features=256, bias=True)
          )
          (linear1): Linear(in_features=256, out_features=1024, bias=True)
          (dropout): Dropout(p=0.3, inplace=False)
          (linear2): Linear(in_features=1024, out_features=256, bias=True)
          (norm1): LayerNorm((256,), eps=1e-05, elementwise_affine=True)
          (norm2): LayerNorm((256,), eps=1e-05, elementwise_affine=True)
          (dropout1): Dropout(p=0.3, inplace=False)
          (dropout2): Dropout(p=0.3, inplace=False)
        )
      )
    )
    (output_projection): Linear(in_features=256, out_features=1, bias=True)
    (dropout): Dropout(p=0.3, inplace=False)
  )
  (audio_encoder): TransformerAudioEncoder(
    (input_projection): Linear(in_features=40, out_features=128, bias=True)
    (transformer_encoder): TransformerEncoder(
      (layers): ModuleList(
        (0-1): 2 x TransformerEncoderLayer(
          (self_attn): MultiheadAttention(
            (out_proj): NonDynamicallyQuantizableLinear(in_features=128, out_features=128, bias=True)
          )
          (linear1): Linear(in_features=128, out_features=512, bias=True)
          (dropout): Dropout(p=0.3, inplace=False)
          (linear2): Linear(in_features=512, out_features=128, bias=True)
          (norm1): LayerNorm((128,), eps=1e-05, elementwise_affine=True)
          (norm2): LayerNorm((128,), eps=1e-05, elementwise_affine=True)
          (dropout1): Dropout(p=0.3, inplace=False)
          (dropout2): Dropout(p=0.3, inplace=False)
        )
      )
    )
    (output_projection): Linear(in_features=128, out_features=1, bias=True)
    (dropout): Dropout(p=0.3, inplace=False)
  )
  (visual_encoder): TransformerVisualEncoder(
    (input_projection): Linear(in_features=35, out_features=128, bias=True)
    (transformer_encoder): TransformerEncoder(
      (layers): ModuleList(
        (0-1): 2 x TransformerEncoderLayer(
          (self_attn): MultiheadAttention(
            (out_proj): NonDynamicallyQuantizableLinear(in_features=128, out_features=128, bias=True)
          )
          (linear1): Linear(in_features=128, out_features=512, bias=True)
          (dropout): Dropout(p=0.3, inplace=False)
          (linear2): Linear(in_features=512, out_features=128, bias=True)
          (norm1): LayerNorm((128,), eps=1e-05, elementwise_affine=True)
          (norm2): LayerNorm((128,), eps=1e-05, elementwise_affine=True)
          (dropout1): Dropout(p=0.3, inplace=False)
          (dropout2): Dropout(p=0.3, inplace=False)
        )
      )
    )
    (output_projection): Linear(in_features=128, out_features=1, bias=True)
    (dropout): Dropout(p=0.3, inplace=False)
  )
  (fusion_module): MultimodalCrossAttention(
    (text_proj): Linear(in_features=256, out_features=256, bias=True)
    (audio_proj): Linear(in_features=128, out_features=256, bias=True)
    (visual_proj): Linear(in_features=128, out_features=256, bias=True)
    (text_audio_attn): CrossAttention(
      (query_proj): Linear(in_features=256, out_features=256, bias=True)
      (key_proj): Linear(in_features=256, out_features=256, bias=True)
      (value_proj): Linear(in_features=256, out_features=256, bias=True)
      (output_proj): Linear(in_features=256, out_features=256, bias=True)
      (dropout): Dropout(p=0.3, inplace=False)
    )
    (text_visual_attn): CrossAttention(
      (query_proj): Linear(in_features=256, out_features=256, bias=True)
      (key_proj): Linear(in_features=256, out_features=256, bias=True)
      (value_proj): Linear(in_features=256, out_features=256, bias=True)
      (output_proj): Linear(in_features=256, out_features=256, bias=True)
      (dropout): Dropout(p=0.3, inplace=False)
    )
    (audio_text_attn): CrossAttention(
      (query_proj): Linear(in_features=256, out_features=256, bias=True)
      (key_proj): Linear(in_features=256, out_features=256, bias=True)
      (value_proj): Linear(in_features=256, out_features=256, bias=True)
      (output_proj): Linear(in_features=256, out_features=256, bias=True)
      (dropout): Dropout(p=0.3, inplace=False)
    )
    (audio_visual_attn): CrossAttention(
      (query_proj): Linear(in_features=256, out_features=256, bias=True)
      (key_proj): Linear(in_features=256, out_features=256, bias=True)
      (value_proj): Linear(in_features=256, out_features=256, bias=True)
      (output_proj): Linear(in_features=256, out_features=256, bias=True)
      (dropout): Dropout(p=0.3, inplace=False)
    )
    (visual_text_attn): CrossAttention(
      (query_proj): Linear(in_features=256, out_features=256, bias=True)
      (key_proj): Linear(in_features=256, out_features=256, bias=True)
      (value_proj): Linear(in_features=256, out_features=256, bias=True)
      (output_proj): Linear(in_features=256, out_features=256, bias=True)
      (dropout): Dropout(p=0.3, inplace=False)
    )
    (visual_audio_attn): CrossAttention(
      (query_proj): Linear(in_features=256, out_features=256, bias=True)
      (key_proj): Linear(in_features=256, out_features=256, bias=True)
      (value_proj): Linear(in_features=256, out_features=256, bias=True)
      (output_proj): Linear(in_features=256, out_features=256, bias=True)
      (dropout): Dropout(p=0.3, inplace=False)
    )
    (fusion_layer): Sequential(
      (0): Linear(in_features=512, out_features=512, bias=True)
      (1): LayerNorm((512,), eps=1e-05, elementwise_affine=True)
      (2): ReLU()
      (3): Dropout(p=0.3, inplace=False)
      (4): Linear(in_features=512, out_features=256, bias=True)
      (5): LayerNorm((256,), eps=1e-05, elementwise_affine=True)
      (6): ReLU()
      (7): Dropout(p=0.3, inplace=False)
    )
    (output_proj): Linear(in_features=256, out_features=1, bias=True)
  )
  (output_proj): Linear(in_features=256, out_features=1, bias=True)
)
2025-04-23 17:36:22 - root - INFO - Logging to /Users/jugalgajjar/Documents/George Washington University/Semester 2/Machine Learning/Multimodal-Sentiment-Analysis-with-MOSEI-Dataset/logs/multimodal_fusion.log/log.txt
2025-04-23 17:36:22 - root - INFO - 
Starting training...
2025-04-23 17:36:22 - root - INFO - Starting training...
2025-04-23 17:36:22 - src.training.trainer - INFO - Starting training for 2 epochs
…
